src/android/enq_model.tfbundle/enq_model.tflite (tflite, 898228 bytes, 20 tensors)

conv2d_1/Conv2D_bias f4 [16]
000000 6c 2b 89 bd 64 a9 92 3e b6 ca 01 3f 27 57 c0 3e
       -0.06697735 0.2864486 0.5069994 0.37566492
000010 64 96 d4 bc 72 a0 ff 3e b7 32 0e bd 11 ad 09 3e
       -0.025950618 0.49927098 -0.034716334 0.13444926
000020 db 06 23 be d3 23 03 bd 48 a7 91 3e 46 28 2e be
       -0.15920584 -0.032016587 0.28447938 -0.1700755
000030 f3 44 2a 3d f6 8d 89 3d 18 af 05 bd 68 51 e8 3d
       0.04156966 0.0671653 -0.032637686 0.11343652

conv2d_1/kernel f4 [16, 3, 3, 3]
000000 34 a0 dd 3d b9 dc 4d bd 77 2c a6 3d 18 9a 75 3d
       0.10821572 -0.050259326 0.0811395 0.05996141
000010 fa eb 26 bd 54 67 f0 bb b7 7a 37 be 0e c2 05 3e
       -0.04075239 -0.0073365364 -0.17917906 0.13062307
000020 36 ca dc bd c1 46 91 3d b4 88 3f 3e f3 92 39 3e
       -0.10780756 0.07093573 0.18704492 0.18122463
000030 10 54 25 bb e3 76 22 be 55 e7 fe bd 83 37 d6 bd
       -0.0025227107 -0.15865664 -0.12446467 -0.10459807
000040 e9 c1 14 3e 87 b1 38 bd a8 28 86 bd b0 a7 1b 3e
       0.14527096 -0.04509118 -0.06550723 0.15200686
000050 43 1e 7b 3d 77 65 fb bc df 8e a8 bd 78 22 f5 bd
       0.061308157 -0.03068803 -0.082303755 -0.11969465
000060 63 67 9c bd d9 c0 e6 3d 27 f6 1a be 1a 8f 24 be
       -0.07636907 0.112672515 -0.15132962 -0.16070214
000070 50 79 8d bd 47 52 25 be 32 5b 57 bb 2f 1b 19 be
       -0.06907904 -0.16144668 -0.0032860753 -0.14951776
000080 44 d0 2a be fc 2a 17 3e da e1 8b 3c f8 fe a0 3d
       -0.1668101 0.14762491 0.017075468 0.078611314
000090 35 73 1b 3e 14 0a f7 3d 56 fd 3f be 4a 67 f8 bd
       0.15180667 0.12062469 -0.18748984 -0.12129076
0000a0 90 59 eb 3d 0c d8 c1 3d 8c dc 17 be 81 40 1b be
       0.11491692 0.09465036 -0.14830226 -0.15161325
0000b0 7e 2d c0 3c f2 ab a3 3d 57 0f d0 3d 03 36 ee 3d
       0.023459192 0.0799178 0.10159176 0.11631396
0000c0 ac fe 93 3c ce 75 10 3c 15 6c 1b 3e 9e 31 2d 3e
       0.018065773 0.008817149 0.15177949 0.16913459
0000d0 29 6b b7 3d e7 a6 5a 3c 85 24 c0 3c 85 28 fd 3d
       0.08955986 0.013345457 0.023454914 0.12361244
0000e0 10 1a 68 bd bd cf c7 3c e4 58 4a 3e 58 2a ee bd
       -0.05666548 0.02439105 0.19760472 -0.1162917
0000f0 30 00 f5 3d d3 3e 97 3c b0 98 d5 3b 73 57 f7 bd
       0.119629264 0.018462574 0.006518446 -0.120772265
000100 2d 2d 33 be 0c 70 01 be 15 59 38 bd e9 3b 81 be
       -0.17497702 -0.12640399 -0.04500683 -0.2524102
000110 8e 93 f2 bd 8b 03 eb bd d9 1e fc bc 8f 76 c1 bd
       -0.1184455 -0.11475285 -0.030776428 -0.094464414
000120 2e 12 e1 3d 02 15 63 bd a8 32 4d 3e ba 44 80 3e
       0.109897956 -0.055439956 0.20038855 0.25052434
000130 b1 25 2d be ea 22 35 3d 0f 3a aa bc 77 6b 6b bd
       -0.1690891 0.04422275 -0.020779638 -0.057475533
000140 09 b9 c5 bd 63 50 aa 3d 25 73 a3 bd b9 d1 6f 3e
       -0.09654433 0.08316114 -0.079809465 0.23419847
000150 b0 85 8b 3d 7c 3e ad bc 53 7d ae bd 7d fb da bd
       0.06812608 -0.021147959 -0.085199974 -0.10692499
000160 cb ff 2f 3e e4 99 78 3c 8a a4 81 bc 2f 09 a5 bd
       0.17187421 0.015173409 -0.015825529 -0.08058392
000170 60 19 fe bd 60 c5 57 3d 0c 86 20 3e 1a 84 ab 3d
       -0.12407184 0.052678466 0.15676135 0.08374806
000180 89 35 4e 3e be 65 33 bd 1c 13 38 3d 9a 61 de bd
       0.2013761 -0.0437982 0.0449401 -0.1085846
000190 4b dd d2 bc 0b 08 52 3d 45 10 d2 bd 91 2c 3e bd
       -0.025740286 0.0512772 -0.102570094 -0.04642922
0001a0 49 0b ed bd 74 b7 29 be f7 3d fe 3c 65 b2 af bd
       -0.11574418 -0.16573888 0.031035407 -0.08578948
0001b0 d2 7e c2 3c f4 01 84 bd cc 46 9d bc 8f de 1a 3e
       0.023742113 -0.06445685 -0.019198798 0.15123962
0001c0 b9 0c 37 bd 36 b2 28 bd 5a ad 2e bd 02 fb c4 bd
       -0.044689868 -0.04118558 -0.04264579 -0.096181884
0001d0 68 2c fe bd 2f e1 82 3d 05 d8 bd 3d d0 e0 0e 3e
       -0.124108136 0.063906066 0.09269718 0.13952947
0001e0 09 88 00 3e b6 c4 b7 bd 0f 98 c3 bd 56 77 5e bd
       0.12551893 -0.089730665 -0.09550487 -0.054313026
0001f0 c8 f0 58 be bf a1 f3 3d 3b 3d 29 3e 95 c7 0d bd
       -0.21185601 0.11896085 0.16527264 -0.034614164
000200 62 2f 0f 3e 23 8e 31 3e 1c 4f 0b bd 22 a9 5a bc
       0.13982919 0.17339377 -0.03401099 -0.0133459885
000210 a2 fc 0d 3e 21 4a 0f be 9e 28 03 be 41 4d 32 bd
       0.13865903 -0.13993122 -0.12808463 -0.043530706
000220 cb 6a 0e 3e 02 eb 1e bd ef 50 7f 3e 04 22 24 3e
       0.13907926 -0.03879834 0.24933217 0.16028601
000230 63 68 47 be 54 25 92 bd 98 68 0f be 25 79 91 3c
       -0.19473414 -0.07136026 -0.14004743 0.017757962
000240 04 84 1f be 48 43 0e 3e 3f 65 2c 3d 48 44 1f bd
       -0.15577704 0.13892853 0.042088743 -0.038883477
000250 bd 9a 47 3e 39 0c 23 bd 5e e6 00 3e 82 21 8f 3c
       0.19492622 -0.03980658 0.12587878 0.017472032
000260 4c 7f e5 bd f3 65 09 be af 6d 10 be 83 09 39 be
       -0.112059206 -0.13417797 -0.14104341 -0.18070035
000270 7f 25 ce bd 20 82 3d 3e d4 98 b1 bd 35 de f7 bd
       -0.100657456 0.1850667 -0.08671728 -0.121029295
000280 b2 72 50 bd 74 7f 45 be b0 5a 31 be cf d0 b8 3d
       -0.050890632 -0.19286901 -0.17319751 0.09024202
000290 11 45 d1 bd 43 4e e7 3d a3 ff d6 bd fc 02 0f 3d
       -0.102182515 0.11294224 -0.104979776 0.034914955
0002a0 d0 e1 af bc 40 e1 06 be 01 3b 24 bd db 11 16 be
       -0.02146998 -0.13171864 -0.040095333 -0.14655249
0002b0 8a 81 7e 3d 68 71 b2 bc 72 3b bd bc 06 bf 11 3e
       0.062135257 -0.021782592 -0.023099635 0.14233026
0002c0 54 79 f0 bd 12 34 43 bd 39 94 2d 3d 39 2a 08 3e
       -0.117418915 -0.04765708 0.042377684 0.13297357
0002d0 e6 cd 3e bb 00 5a da bd b2 77 14 3e bc 77 20 3e
       -0.0029114424 -0.106616974 0.14498785 0.15670675
0002e0 67 50 9d 3d 94 30 d2 3d 7c 0b cf 3d 60 a3 93 bd
       0.07681351 0.10263172 0.10109612 -0.07208896
0002f0 28 9e 62 3c ed b0 b8 3d d2 03 94 bd 87 f6 b1 bd
       0.013831653 0.09018121 -0.07227291 -0.086895995
000300 b5 a1 5d bd 2d c0 91 3d f1 be 37 3e 80 8e e4 bd
       -0.054109294 0.07116733 0.17943932 -0.11159992
000310 8b 2b 37 be 8d 95 05 3e ea 82 29 be 25 02 32 3e
       -0.17887704 0.1304533 -0.16553846 0.1738363
000320 d6 90 e8 bd d5 7a 38 be 99 c6 1d 3e 57 fb 21 3d
       -0.1135575 -0.18015607 0.1540779 0.039546337
000330 c1 e3 50 bc 43 0e 6d 3d ca e3 46 3d bc 6c 14 3e
       -0.012749613 0.05787493 0.04855708 0.14494604
000340 e4 f1 fd bd 88 8d b3 3d 36 41 04 be 41 41 7e bb
       -0.123996526 0.08767229 -0.12915501 -0.0038796219
000350 89 94 64 bd c6 92 a6 3d 8b b4 f0 bd d7 9f 22 be
       -0.055805717 0.081334636 -0.11753186 -0.15881287
000360 6a 32 e3 bd 83 25 13 3e 30 44 77 3d 64 f8 ff 3b
       -0.110936 0.14369778 0.060367763 0.007811593
000370 45 3f b5 3d 35 ef 89 bc 14 3a 4e 3d 4b 9f a1 3d
       0.08849958 -0.016837696 0.050348356 0.07891711
000380 ae 3f 86 bc c7 3f f7 3c 86 c7 82 bd 91 d4 f3 3d
       -0.016387787 0.030181779 -0.06385712 0.11905778
000390 92 31 65 3d 99 31 87 3c 32 28 50 3d cc d4 9a 3d
       0.055955477 0.016503142 0.050819583 0.07560119
0003a0 8e 6e 9a 3d ca a1 a4 bb 44 23 3e 3e e9 6a 21 be
       0.07540618 -0.0050241696 0.1856814 -0.15763439
0003b0 f7 3d 27 be be e7 2e 3e 5e 07 9d bd 39 8b 55 3d
       -0.16332231 0.1708059 -0.07667421 0.052134726
0003c0 3e 39 49 be fb 07 d9 bd 07 f6 17 be eb 0c 07 3e
       -0.19650742 -0.10597225 -0.14839946 0.13188522
0003d0 3e 52 de bd dc 98 08 3e 5a c4 d6 3d 3b 8e 50 bc
       -0.1085553 0.13339561 0.1048667 -0.012729223
0003e0 77 ea d4 3d 4c 92 cc bd cf 9e ff bd b5 8c 7d bd
       0.10396283 -0.099888414 -0.12481462 -0.061901767
0003f0 3c 31 51 bd b4 b4 06 be 02 06 0c 3e 38 4d 2a 3a
       -0.051072344 -0.1315487 0.13674167 0.0006496492

conv2d_2/Conv2D_bias f4 [16]
000000 7b 9b 9e bd 2e 47 ed 3e fd 4a a3 bc 9e 7f f6 bd
       -0.07744499 0.46343368 -0.019933218 -0.1203606
000010 fc e8 aa bd 14 77 6c 3e d7 06 0d 3e 89 95 db bd
       -0.083452195 0.230923 0.1377214 -0.10721881
000020 61 07 58 be 94 a1 25 3e af 14 10 be a9 34 02 3d
       -0.21096565 0.16174918 -0.1407039 0.031788502
000030 80 65 c6 3d 0c 19 bf 3d 94 3a 49 3e d7 a8 d2 3d
       0.09687328 0.09330949 0.19651252 0.1028611

conv2d_2/kernel f4 [16, 3, 3, 16]
000000 12 7e 6e 3d ee af 54 3d 43 aa ef 3b 35 4b 34 bc
       0.0582257 0.051925592 0.007313998 -0.011004259
000010 16 e7 ac bd 8e 71 00 be 33 7d 18 3e 42 52 97 bc
       -0.08442514 -0.12543318 0.1489151 -0.01847184
000020 cd af b2 bd ce 58 48 3d ea 42 e6 bc 21 e5 b2 bd
       -0.087249376 0.048912816 -0.028108079 -0.08735109
000030 91 3b d4 bd ad 8a 1d be 35 7e f4 3d a1 22 1c 3e
       -0.10362924 -0.15384932 0.119381346 0.15247585
000040 37 5f 08 be 0b 52 6d 3d b4 a4 5e bd 84 31 b3 bd
       -0.13317572 0.05793957 -0.054356292 -0.08749679
000050 78 32 2c be dd 8f 14 be bb 0b 01 bc d0 aa a7 bd
       -0.16816127 -0.14508004 -0.007876332 -0.08186877
000060 84 67 43 3d e3 51 24 be 69 d9 1e bc bd 10 0d 3e
       0.047706142 -0.16046862 -0.009695389 0.13775916
000070 7d 07 24 bd 23 a3 a7 bd 41 c5 c1 3d c3 23 78 3d
       -0.040046204 -0.08185413 0.09461451 0.06058098
000080 02 dc 16 3c 3b a8 84 3d db 34 31 bd 93 d2 ea bd
       0.009207727 0.064774 -0.043263298 -0.11465945
000090 49 ad 15 3d ff 63 db 39 b3 12 a2 3d fb 34 d5 3d
       0.03654221 0.00041845438 0.07913723 0.10410496
0000a0 36 20 1b be 53 2e d3 bd 20 13 d6 3d 66 9a 19 3d
       -0.15149006 -0.1031157 0.104528666 0.03750076
0000b0 1e 08 02 3d d5 2f b6 bd cf 27 2a 3c 99 84 0b bd
       0.031746022 -0.08895842 0.010385468 -0.034062
0000c0 a0 0f be ba 42 32 45 3d 96 a6 2d be 68 70 ca bd
       -0.0014500506 0.048143633 -0.16958079 -0.09884721
0000d0 3f ed 64 3d 4c 3e 97 bd a2 7b a0 bb ae 35 0e 3e
       0.055890318 -0.07384929 -0.0048975507 0.13887665
0000e0 29 c2 b5 3d 31 26 de 3c 47 b4 23 3e 7c 5d 0f be
       0.08874924 0.02711782 0.15986739 -0.14000505
0000f0 4a c2 12 3e ea 90 08 3c 44 3d 70 3d aa 7c 66 bc
       0.14331928 0.008335331 0.058652177 -0.014067808
000100 5f d5 e9 3d b3 b9 a3 3d c2 5d 52 bd 82 6a ce bd
       0.114176504 0.07994404 -0.051358946 -0.100789085
000110 01 39 ed bd 77 fe bd 3c d1 d5 c8 bc af db 7d bd
       -0.11583138 0.023192627 -0.024516018 -0.061977085
000120 5a 02 ec 3d 6f 9b 42 be 63 2d a1 3d 5f 41 c0 3d
       0.11523886 -0.19004606 0.07869985 0.093874685
000130 89 39 18 3e 6f 89 c4 bd 4e 13 80 3d 06 a6 1b be
       0.14865698 -0.09596526 0.06253682 -0.15200052
000140 7e 08 6c 3c 78 3a 8e bd 78 41 0a be f5 12 f7 3c
       0.014406322 -0.06944746 -0.13501537 0.030160407
000150 88 ea 04 3d 53 32 aa bb e4 f1 1a be e1 63 9d 3c
       0.03245023 -0.0051939874 -0.15131336 0.019212665
000160 6d f0 94 bd 99 69 0a 3c 56 04 4d bd d1 62 ae bc
       -0.0727242 0.008448028 -0.050052963 -0.021287354
000170 16 d7 d1 39 a3 b2 0f bd 03 51 78 bd 87 21 6d be
       0.00040023838 -0.03508247 -0.060624134 -0.23157321
000180 5b 0a 0c 3d dd d5 83 bd d4 91 a8 bd 8c a3 f1 bb
       0.034189563 -0.064372756 -0.082309395 -0.0073742326
000190 77 44 e6 bc 33 15 15 be 40 e8 bd bd 38 7e e9 bd
       -0.028108818 -0.14558868 -0.09272814 -0.114010274
0001a0 bd 81 e4 bd c6 2a 41 bc aa 0a c0 bc 38 06 92 bd
       -0.11157558 -0.011789983 -0.023442585 -0.071300924
0001b0 d0 3b 82 bd 0d b1 a3 bd 14 04 60 3d 1c 5e 40 be
       -0.063590646 -0.07992754 0.05469139 -0.187859
0001c0 9a c7 60 bc 70 94 91 3d ec 5c 85 3d 3a f7 ef ba
       -0.013719464 0.0710839 0.06511864 -0.0018307932
0001d0 7d 28 08 be b8 d4 b2 bd 60 ae 6c 3d fb d3 c7 3c
       -0.13296695 -0.08731979 0.057783484 0.024393072
0001e0 51 c5 06 3e 78 ff 27 3d 34 21 e6 bd b6 56 2f be
       0.13161208 0.04101512 -0.11236802 -0.17122921
0001f0 df 4f d2 bd 66 7d c0 3d 01 20 0c bd 9a 5d 95 bd
       -0.102691405 0.09398918 -0.03421021 -0.07293244
000200 97 9f a6 3d e2 35 f2 bd 7d e5 0b bd cf b1 c5 39
       0.08135908 -0.118266836 -0.034154404 0.00037707246
000210 38 49 cd bc 95 c0 18 3d a7 d0 20 3d 84 98 00 be
       -0.025059327 0.037293036 0.039261486 -0.1255818
000220 d8 14 b9 3d 0b 8c a9 bd 0a 11 68 3d 48 7f e6 bd
       0.09037179 -0.08278664 0.056656875 -0.11254746
000230 9c 70 bf 3c bd 84 50 bc bc 4d e8 3c 92 82 3e bd
       0.023369126 -0.01272696 0.02835738 -0.04651124
000240 bf da d9 bd 56 30 1b be 4b db 8e 3d 94 23 9b 3d
       -0.10637426 -0.15155157 0.069754206 0.07575145
000250 44 b3 4e bb 1f 35 30 3e 6d 9d ee bd 48 64 ed bc
       -0.0031539956 0.17207764 -0.1165112 -0.028978482
000260 d4 20 13 be 7a 5c 07 bd 84 e1 00 bb cf ad 08 3e
       -0.14367992 -0.033047177 -0.0019665668 0.13347553
000270 40 2b d0 3d 79 98 77 3d 9a db b4 bd a1 d0 08 3e
       0.10164499 0.060448144 -0.08830948 0.13360836
000280 d3 51 c9 bb 68 23 8f 3c 37 6f e8 3d 23 11 46 bd
       -0.0061437874 0.017472938 0.113493375 -0.048356187
000290 e6 30 e8 3b bd e3 b9 3d 45 69 bb bd 0b df 12 3c
       0.0070859073 0.09076641 -0.09150938 0.00896431
0002a0 93 23 88 3d 38 a8 a7 bd b3 fa 3d bd 34 32 b7 bc
       0.0664741 -0.08186382 -0.046381664 -0.022362806
0002b0 5a 13 ac bd a2 97 e4 3d 4d 45 99 3d d4 bb 25 bb
       -0.084021285 0.11161734 0.07483921 -0.0025288956
0002c0 1c 9d 2e bc af 35 6a bd e1 57 38 3e 6e 56 52 bd
       -0.010657575 -0.057180103 0.18002273 -0.051351957
0002d0 4f fd d0 bc 35 88 dd 3d 3e eb 80 bd 8c 0f 2a be
       -0.025511412 0.10816995 -0.06294869 -0.16607493
0002e0 23 27 7d 3d 89 96 08 3d da 33 db 3c 82 40 ca 3c
       0.0618049 0.033346687 0.026758123 0.024688963
0002f0 20 4a 82 3d 24 95 25 3c da 65 bd bd a4 97 a9 3d
       0.063617945 0.010106359 -0.09247942 0.08280876
000300 69 71 87 bd f1 67 5f bd 4c eb 9e 3d 33 6c 37 3e
       -0.06613428 -0.054542486 0.07759723 0.17912368
000310 da fe a6 3d fe 4f c2 3d 4f c3 b1 3c f2 f4 1c 3d
       0.08154078 0.094879135 0.021699576 0.038319536
000320 2f 4c 05 be 7f be d4 bd d1 5e 04 be c3 6f 38 bb
       -0.13017343 -0.10387897 -0.12926795 -0.0028142787
000330 33 c8 84 be 13 00 17 be 0e 37 f2 bc 30 f3 05 3d
       -0.2593399 -0.14746122 -0.029567268 0.032702625
000340 88 1b b5 bd 21 83 70 bd cd ef 34 bd 2f 28 ac 3d
       -0.08843142 -0.058718804 -0.044174004 0.08406102
000350 9c f7 cf bd 43 79 b4 bd d2 78 22 bd db 16 7d bd
       -0.101546496 -0.08812191 -0.039666004 -0.061789375
000360 f6 92 2a 3d 09 ab be bc 23 fc b9 bd 93 be d2 bc
       0.04164406 -0.023274915 -0.090812944 -0.025725638
000370 b2 da 65 3c 83 5b 86 3d 73 70 02 3e 23 5c 53 bc
       0.014029192 0.06560423 0.12738208 -0.012900385
000380 e6 80 2a bb 4e de 1e be ec d9 20 bc 1b 59 ac 3d
       -0.002601677 -0.1551449 -0.009817582 0.08415433
000390 6c 14 c9 bc 88 31 15 3e 4e c9 e1 3c 7b 4e 03 3d
       -0.02454587 0.14569676 0.02756181 0.032057267
0003a0 90 01 95 3d 72 ef 89 3d a6 4c 00 3d 03 83 a1 bd
       0.07275689 0.06735124 0.031323098 -0.078863166
0003b0 12 b2 85 3d a6 50 cb 3d 63 0c 9f bd 52 92 80 bd
       0.06528105 0.09927492 -0.077660345 -0.062779084
0003c0 3e f5 e0 3c 8e e8 1c 3d 58 1a 13 3e f2 a6 26 3e
       0.02746069 0.03830772 0.14365518 0.16274622
0003d0 cb da a2 3c af ce 20 bd 77 e4 cd bc 5f ac 3f 3e
       0.01987972 -0.03925961 -0.025133355 0.18718098
0003e0 bd 24 af bd b9 ff b7 bd 6c ae 40 3c 1c 7d da bd
       -0.08551929 -0.08984322 0.011760335 -0.10668394
0003f0 b1 c6 44 3d fd a3 3a 3e 67 f7 9e 3c bd 69 d9 3c
       0.04804105 0.18226619 0.01940508 0.026539678

conv2d_3/Conv2D_bias f4 [32]
000000 2c 14 1e be 31 9e d5 3d 1b a1 14 3d 1e 1a 7f be
       -0.15437382 0.10430563 0.036286455 -0.24912307
000010 5c 84 06 bd 9e b0 9f bc 47 4e 86 bc f6 8c 20 bd
       -0.03284107 -0.019493397 -0.016394747 -0.03919693
000020 90 fb 59 3e d0 cc 3d 3d 6f 61 d3 3e 18 be 53 3e
       0.2128737 0.046337903 0.41285273 0.20677984
000030 51 34 db bd a8 dd 89 bc 4e da c0 3d 2a c4 a0 be
       -0.10703338 -0.016829327 0.09416638 -0.3139966
000040 35 7c 6c bd 04 73 28 3e d5 cc 22 bd 1e 0b 62 be
       -0.05773564 0.16450125 -0.039746124 -0.22074553
000050 e9 14 bf 3d 3e 14 10 3e 3f f3 de 3d 2e dd ae 3e
       0.0933016 0.14070222 0.10886239 0.34153122
000060 5a d3 6a 3e 5e d7 8e be f3 8f 8f be 14 14 89 bd
       0.22932187 -0.27898687 -0.28039512 -0.06693283
000070 fd bf 70 3e 9c b0 78 bc 62 b1 f9 bc 13 f1 9a 3e
       0.23510738 -0.015178826 -0.03048009 0.3026205

conv2d_3/kernel f4 [32, 3, 3, 16]
000000 12 7d 83 bc cb b8 db bd e5 37 ef bc 4c 92 bc 3d
       -0.01605085 -0.10728606 -0.029201457 0.092075914
000010 56 28 2a bd bc 42 6c bd 11 66 58 3d 64 cc a1 3c
       -0.041542374 -0.05768083 0.052831713 0.019750781
000020 74 0d 02 3e d3 4b da 3c 4c a7 b7 3c 49 00 6e 3d
       0.12700444 0.026647484 0.02241864 0.05810574
000030 6e 8c b6 bd a1 d4 78 bd d1 d4 5f bd db e0 a3 3d
       -0.089135036 -0.060749654 -0.054646317 0.08001872
000040 0b 9a 56 bc e9 86 de bd 28 c4 af 3c 66 c3 fa bc
       -0.01309825 -0.10865576 0.02145584 -0.030610751
000050 2f 5c 22 bd 34 ea 14 bc d9 74 80 3c c5 58 99 3d
       -0.039638694 -0.0090890415 0.015680717 0.074876346
000060 84 44 08 3e 68 6b 89 3d 2e cd d4 3c cf b3 5d 3d
       0.13307387 0.06709939 0.025976744 0.054126557
000070 4d 42 fa bc 70 8f a8 bd 7c 4c 3f bc 26 c8 03 bd
       -0.030549193 -0.082304835 -0.01167595 -0.0321733
000080 fd cc 75 3d 64 5b 5f bd 93 0d 06 bd f9 cb b2 bc
       0.060009945 -0.054530516 -0.03272779 -0.021825777
000090 36 e8 7c bd 25 b4 c4 bb 31 bc 80 3d 92 a9 92 bd
       -0.06174489 -0.00600292 0.06285895 -0.07161249
0000a0 b6 58 89 3c 27 d9 47 3d cd 9b 5c 3d 28 5c d3 3d
       0.016765933 0.048791077 0.05385952 0.10320312
0000b0 77 7c ad 3c 18 17 60 bd 3e 5c a3 3d ac 64 1a bd
       0.021177514 -0.054709524 0.07976578 -0.037693664
0000c0 63 fd ec bc 1d e1 37 3a f3 52 ac bd 4f 2d da bd
       -0.028929418 0.00070144405 -0.08414259 -0.10653173
0000d0 61 1e be 3d d0 4c 97 bd 8f 72 62 bd fc 3f 8e 3d
       0.09283138 -0.07387698 -0.055285033 0.06945798
0000e0 a1 ae 1d 3e db 9f 82 3d a7 11 04 3d f5 63 66 3d
       0.15398647 0.06378146 0.032243397 0.05624767
0000f0 76 f2 9e 3c 21 95 b5 3d c3 c8 d0 3c 95 da 89 3d
       0.019402724 0.08866335 0.025486356 0.06731144
000100 08 d5 3f bd 69 4e 54 bd a1 6d bf bc 78 f4 d0 bb
       -0.04683402 -0.05183259 -0.023367705 -0.006376799
000110 2d 50 21 3d 4c 43 cf bd d5 0f af 3a a6 63 9c 3d
       0.039383102 -0.10120258 0.0013356159 0.07636194
000120 0c 85 1d 3e 62 6a c7 bc 36 f9 f8 bb 80 94 b4 3d
       0.15382785 -0.02434272 -0.0075980676 0.088173866
000130 18 f7 7b bc 5b 08 c3 3d 8b d2 ae bc ba 63 78 3d
       -0.015378736 0.09523078 -0.02134063 0.06064198
000140 ad e5 24 be f0 d0 62 bc c6 36 f7 bd e7 56 a7 bc
       -0.1610324 -0.01384376 -0.12070994 -0.02042718
000150 0a 1c 43 bd 09 24 9e bd db bd ac bc 81 56 54 bd
       -0.047634162 -0.07721717 -0.021086624 -0.05184031
000160 de 44 f5 3d fa 11 a9 bd 2a cf f7 bc df 51 1d bc
       0.11976026 -0.08255382 -0.03025015 -0.009602039
000170 74 6e d4 bd f1 7e c8 bc 46 d6 06 3b be ce 89 3d
       -0.1037263 -0.024474593 0.0020574494 0.06728886
000180 15 86 5a bc bc 6a 01 3e 36 75 e0 bb 4a 24 88 bd
       -0.013337632 0.12638372 -0.00684991 -0.066475466
000190 67 35 9f bc 64 48 9d bd dd 0c 81 3d a8 18 12 bd
       -0.019434644 -0.07679823 0.063012816 -0.035668045
0001a0 f5 85 0e 3d 1a 10 8c 3d 66 81 68 bd 54 86 f6 3d
       0.03479572 0.06839009 -0.05676403 0.1203734
0001b0 68 2b 46 38 cb ea 50 bd 71 c9 b2 3d ad c5 e1 3a
       4.7247304e-05 -0.051005166 0.08729828 0.001722505
0001c0 2f 35 38 bd d8 ff 27 3c f3 52 e9 bd 23 a4 c3 3c
       -0.044972595 0.010253869 -0.113927744 0.023881977
0001d0 0e b2 c1 3d 1a 52 55 3d 60 43 21 3c 53 40 27 bd
       0.09457789 0.05208025 0.009842724 -0.04083283
0001e0 8e 24 e9 3d 37 ca c9 bd 7a 16 f8 3c 4c 9e 0d 3e
       0.113839254 -0.098530225 0.030284155 0.13829917
0001f0 8c 7f 2b 3d 64 53 cf 3d f5 03 1d 3e 75 d7 96 3c
       0.041869685 0.101233274 0.1533354 0.018413285
000200 35 e2 83 bd c1 2e 0c bc 74 4f 1f be cf 70 7f 3c
       -0.0643963 -0.008556069 -0.15557653 0.0155908605
000210 1f 41 b8 3b b6 f2 90 3d 06 76 0d 3e 8f b2 a5 bd
       0.0056229974 0.070775434 0.13814554 -0.08090698
000220 e4 a0 3b 3e 3c f7 0b 3d 0a f5 0f be 36 be c7 3d
       0.18323094 0.034171328 -0.14058319 0.09753077
000230 c7 88 31 bd 3f d2 ad 3d 84 5f b7 3d 5b 57 23 3c
       -0.04334333 0.08487367 0.08953765 0.009969558
000240 34 e3 27 3d 70 66 4e 3d cc 55 8f 3d c8 16 22 be
       0.040988162 0.05039066 0.06998786 -0.15829003
000250 36 51 47 bd 6d 8a c1 bc d0 50 43 be 0f 4e 1f 3d
       -0.048661433 -0.023625577 -0.19073796 0.0388928
000260 6f 58 b3 bd 8d 29 36 3d a2 d8 67 bd 1e 05 39 3d
       -0.08757102 0.04447322 -0.05660308 0.045170896
000270 e1 c0 3f bc ea a4 70 3d da 84 a1 3d 16 37 18 3c
       -0.011703701 0.058751024 0.078866675 0.009290477
000280 e2 37 d4 bc 5a 97 ff 3c fa 7c 6a bc 8b 91 40 bd
       -0.025905553 0.0312001 -0.014312023 -0.0470138
000290 88 f6 b4 bc 53 2d dc bd 75 7d b1 bd 7f 9a bb bb
       -0.022090212 -0.107508324 -0.08666507 -0.0057252045
0002a0 96 02 3a bc 30 49 5a bc 22 c4 07 3d 80 a3 e0 3c
       -0.011353156 -0.013323113 0.03314603 0.027421713
0002b0 89 60 89 bc 1b 6f c1 3d c5 82 a8 3d 51 fa 14 3d
       -0.016769664 0.0944502 0.08228067 0.036371533
0002c0 5e 6c be bd c5 0f 68 3d 3e b6 a6 3d 63 de b5 bb
       -0.09298013 0.056655664 0.08140229 -0.005550192
0002d0 b6 1d a3 3d e7 44 98 bd 19 85 3d bd e9 d9 f1 bb
       0.07964651 -0.07435017 -0.04626951 -0.0073807132
0002e0 65 47 e1 3c 1a b2 c3 3c 29 84 37 3d 58 cb 29 be
       0.027499864 0.023888636 0.044803772 -0.16581476
0002f0 0e a8 01 3e fd d0 2a 3d b2 d3 c0 3d f6 da cc 3d
       0.12661764 0.041703213 0.09415378 0.10002701
000300 94 21 ce bd 20 88 5f bd 66 1a f9 bc d6 dc 90 be
       -0.10064998 -0.05457318 -0.030408096 -0.28293484
000310 16 fc cc bc 9c 38 0c be f5 6b 8e be 96 ff ff bd
       -0.025022548 -0.1369347 -0.2781674 -0.12499921
000320 d0 d4 6a bd dd 94 d0 3d 1b fc 01 bd 52 5d 04 be
       -0.05733186 0.101846434 -0.031734567 -0.12926224
000330 52 25 eb bc 65 27 14 bd 1b 0a f3 bd fb 6a 96 bd
       -0.02870432 -0.036170382 -0.11867162 -0.07344624
000340 b8 88 4b be 09 21 91 3c e2 3f de 3d 06 a7 0f 3b
       -0.19876373 0.017715948 0.108520284 0.0021919622
000350 de dd 10 3d 9d a0 a8 bd 74 8e 31 be f7 d9 e1 bd
       0.03536784 -0.082337596 -0.17339498 -0.110279016
000360 1d 01 0b 3d 5d 2c 0f 3d d7 d6 7d 3d 6f 98 e3 bd
       0.03393661 0.034954417 0.061972465 -0.11113059
000370 a8 ab 87 bc e9 7d 8f bd 06 9a 0c be e2 bf 23 bd
       -0.016561344 -0.07006437 -0.1373063 -0.039977916
000380 4e 26 fc bd 67 9a f8 bd 9e be b3 3c c9 46 91 bd
       -0.123119935 -0.12138825 0.02194148 -0.07093579
000390 f9 d4 1a 3d ff 2b 33 be 7b 46 c4 bd ee 2f 00 3e
       0.037800763 -0.17497252 -0.095837556 0.12518284
0003a0 0a 97 14 3e 91 0c 0b 3d 21 34 8a bd 2e 5d 92 bd
       0.14510742 0.03394753 -0.06748224 -0.07146679
0003b0 8c ca 1d 3c 87 bf 40 3d bd af 96 3c a3 85 03 3d
       0.0096308105 0.047057655 0.018394345 0.032109868
0003c0 d3 48 27 be 15 01 8f 3d da 57 8b 3d c3 66 d9 bd
       -0.16336374 0.06982628 0.06803866 -0.10615303
0003d0 24 92 93 bd 9d d9 00 3d 13 e6 20 bd 3d 3c cd bd
       -0.072056085 0.031457532 -0.039281916 -0.10021255
0003e0 5a bc e1 bd 83 78 a5 3d e0 b1 5c 3d e2 16 83 bd
       -0.11022253 0.080796264 0.053880572 -0.06400849
0003f0 f8 f3 d8 bc d4 e3 7c 3d 83 61 fc bc 9a bf a3 bc
       -0.02648352 0.06174071 -0.030808216 -0.019988824

conv2d_4/Conv2D_bias f4 [32]
000000 21 f1 93 3e 12 f4 77 3e 9d 9c a5 3d 8c f9 8f bd
       0.28894904 0.24214199 0.08086512 -0.07030019
000010 2d 0b 07 be f1 9a 06 3d f7 73 96 3c 72 a1 62 bd
       -0.13187857 0.032862607 0.018365843 -0.055329747
000020 a7 74 ba 3d 6e 59 0f 3d 2f df 86 3e a6 30 a8 3e
       0.09104281 0.034997396 0.2634215 0.32849616
000030 9e 94 b9 3d 01 e2 c7 3d de 75 78 3e 1a 10 e3 bb
       0.090615496 0.09759904 0.24263713 -0.0069294097
000040 2d 62 52 be e2 ea f2 bc 37 ea 54 3e 0b 1e 1b be
       -0.20545264 -0.029653016 0.20792471 -0.15148179
000050 3b 70 9c 3d 08 51 7e be ec 46 e4 bd a1 e7 1d be
       0.07638594 -0.24835598 -0.1114634 -0.1542039
000060 73 18 19 3e 38 44 82 bd 60 de 7f 3e e1 97 f6 3d
       0.14950733 -0.06360668 0.24987173 0.12040687
000070 83 98 43 be 80 37 84 bd 94 d1 8a 3e 1d cf 77 3d
       -0.19101147 -0.06455898 0.2711302 0.060500253

conv2d_4/kernel f4 [32, 3, 3, 32]
000000 dd c4 a0 3d 8b 72 8c bd 41 03 28 ba 55 39 0e be
       0.07850049 -0.06857785 -0.0006409176 -0.13889058
000010 15 d5 d2 bc 36 99 8f 3d 43 95 89 3d 64 9d 6f 3d
       -0.025736371 0.070116445 0.067179225 0.05849971
000020 e6 d4 52 3d b2 12 74 3d 4d 9a 07 3b 90 6b ad bc
       0.051472567 0.05958814 0.0020691336 -0.021169454
000030 a9 d1 e5 3a e2 a6 ba 3d d3 24 96 bc ea 3d 09 bd
       0.0017533797 0.091138616 -0.018328106 -0.03350631
000040 4e 24 4e 3c 2c 1b d0 bd 4f 68 54 bd 3a 7f b3 3d
       0.012581898 -0.101614326 -0.05185729 0.08764501
000050 9b a8 f3 bc 1d 95 e3 bd 61 1e d7 bc c7 16 22 3d
       -0.029743483 -0.111124255 -0.026259603 0.039572503
000060 a0 08 32 bd 87 b1 c6 3d da cd cb bd f7 14 87 3d
       -0.043465257 0.097018294 -0.099513724 0.065957956
000070 f0 84 f3 3c 46 d1 9c 3d 73 35 14 bd 5c 3b 3d 3d
       0.029726475 0.07657103 -0.036183786 0.046199188
000080 9d f9 a0 bd 99 b5 79 3d 77 78 91 bc 12 80 a8 bd
       -0.0786011 0.0609642 -0.017757637 -0.082275525
000090 86 53 2c 3d ad 3d 6f 3c 88 ab e1 3d 6d 73 91 bd
       0.04207184 0.014602107 0.11019045 -0.07102094
0000a0 1f 94 6e 3d c0 6d 98 bd ed 6a 22 bd da 81 0c 3d
       0.058246728 -0.07442808 -0.039652754 0.034303524
0000b0 86 70 c1 3b a0 54 d4 3d 42 6e e5 bd 65 10 9b bc
       0.0059033064 0.103677034 -0.11202671 -0.018928716
0000c0 86 ea d2 3c a1 46 f4 bb 34 ac b4 bd 3b 71 76 bd
       0.025746595 -0.0074547087 -0.08821908 -0.06016658
0000d0 81 c4 19 3d c3 55 b1 bd 4a 1d e9 bb 00 aa 61 3d
       0.037540916 -0.08658936 -0.007114087 0.055093765
0000e0 c2 f2 b5 3d 3b 04 68 3d 59 97 f2 3c e0 ab a2 3d
       0.08884193 0.05664466 0.029613184 0.07942939
0000f0 ae aa 94 3b c7 5c a1 bd ea cd 34 bd 29 87 00 3e
       0.004536948 -0.07879024 -0.044141687 0.1255156
000100 2a 5e cb bb 98 44 52 bb be f2 7a 3d cf b6 81 bd
       -0.0062062936 -0.0032084342 0.061266653 -0.06333696
000110 85 56 1c bd 2f f7 54 bd b8 a5 86 3d 47 d3 12 bd
       -0.03816845 -0.051993545 0.06574577 -0.03584602
000120 a3 f6 ec 3c 6b 18 29 bc b3 7e 39 bc 6c 32 3e bc
       0.0289262 -0.010320763 -0.011321711 -0.011608701
000130 59 2a 71 bd e1 75 da 3d 70 41 00 be 7f 68 77 bb
       -0.058878276 0.10667015 -0.12524962 -0.0037751494
000140 08 19 0e 3d 84 d7 cc bd be 6b 05 be f3 6a d8 bd
       0.03469184 -0.10002044 -0.13029382 -0.10567274
000150 93 17 f9 3d a1 2a aa bd d5 30 60 bd b9 64 a9 b8
       0.121626996 -0.08308912 -0.05473407 -8.077309e-05
000160 b7 7c 9a bc 72 e3 8b bd fd eb 45 3d e3 3e fd 3c
       -0.018858297 -0.06830491 0.04832076 0.030913776
000170 1c 51 a9 3c ba 07 2a 3d 7c b7 1a be 12 4b 06 3b
       0.020668559 0.041511275 -0.15109056 0.0020491523
000180 76 6d 5a bd 56 56 8e bd ec d8 5c bd 8c c0 f7 bd
       -0.053327046 -0.06950061 -0.05391781 -0.12097272
000190 3d a2 29 3c 7c b8 94 3d 3f 8b 9c bd 52 09 fd 3c
       0.010353622 0.0726175 -0.076437466 0.030888233
0001a0 a3 47 8f 3d a0 dc b0 3d 56 e1 00 3c 06 8f da bd
       0.069960855 0.08635831 0.007866224 -0.10671811
0001b0 44 7d 8c bd a5 61 86 bc 33 95 d7 bd 63 90 e0 3b
       -0.0685983 -0.016403982 -0.10526504 0.0068531497
0001c0 8a 92 8e bc 0d 02 4f bd ff 8a 32 ba b8 37 2e 3d
       -0.01740386 -0.050539065 -0.0006810873 0.042533606
0001d0 a8 58 ea 3c 42 37 61 bd 36 e4 86 bc 57 e1 1d 3d
       0.028606728 -0.05498434 -0.016466241 0.03854498
0001e0 ef 46 44 3d 18 aa 2a bd 42 b4 cd bd 20 06 25 3c
       0.04791921 -0.04166612 -0.10044147 0.010072261
0001f0 9a 46 9b 3d 55 b6 30 bd 8b a6 66 bd cf 3e 67 3c
       0.075818256 -0.043142635 -0.05631117 0.014114096
000200 de 89 49 3d 90 5f 45 3c bf 95 80 3b 21 3b e6 bd
       0.049203746 0.01204671 0.003924101 -0.11241747
000210 e3 a7 10 bd 48 15 a3 3d d4 ba 80 bd 53 ab 17 3d
       -0.03531636 0.079630435 -0.06285635 0.037028622
000220 ab 1a 44 3d 76 bf 96 3d 25 81 41 bd 4a 8a 18 be
       0.047876995 0.07360737 -0.047242302 -0.14896503
000230 e4 f0 cf 3d 80 39 12 bd 42 d8 2c 3b 94 a7 ec bd
       0.10153368 -0.035699368 0.0026374017 -0.115554005
000240 42 ef 93 bd 5f b6 5a 3d 2d e0 c7 3c 89 6a 97 3c
       -0.07223369 0.05339658 0.024398888 0.018483417
000250 8d 36 03 bd 67 3e 25 3c 46 1a 33 bd d1 de 96 3c
       -0.032034446 0.010085679 -0.04372623 0.018416794
000260 b6 34 90 bd 2b 8b a9 3d 08 dd 67 bd 1e 5f a4 3a
       -0.07041304 0.08278497 -0.056607276 0.0012540554
000270 d9 4d b5 3b 57 32 af bc dc b2 6b bd ed a3 82 3c
       0.005532962 -0.021386309 -0.05754362 0.015947307
000280 d2 59 68 3d 0a 1d 66 bd 36 2c 1d bd 52 27 bd bd
       0.056726284 -0.056180038 -0.03837224 -0.092360154
000290 f5 24 c7 3d 99 80 1b 3d d0 49 c7 bc 54 16 9d bd
       0.09723846 0.037964437 -0.024327189 -0.076702744
0002a0 bf 39 d5 3c 26 d5 64 3d 7f ca 29 bd e9 3c 10 be
       0.026028512 0.055867337 -0.04145288 -0.14085735
0002b0 d6 ed fb bc 61 54 2c 3d 22 44 20 bd c4 69 65 3d
       -0.030753057 0.042072657 -0.039127477 0.05600907
0002c0 59 45 52 3c 90 4f a0 bd bf 17 d7 bd 4b c8 b9 bd
       0.012833917 -0.07827675 -0.10502576 -0.09071406
0002d0 e1 d0 c0 3d 6f 51 2d 3d dc 50 86 bd 51 d9 6f 3d
       0.094148405 0.04231399 -0.065583915 0.05855686
0002e0 0f af cd bd 0e d4 85 bd 43 e8 aa bd 43 8f db bc
       -0.100431554 -0.06534587 -0.08345082 -0.026801711
0002f0 bf 55 d7 bd 73 0f 8f 3d e3 6e fb 3c d7 d0 08 3e
       -0.10514402 0.069853686 0.030692523 0.13360916
000300 06 d6 05 3d 71 c0 00 be 63 e0 ad bd ad fe a9 bd
       0.03267481 -0.1257341 -0.08490064 -0.08300529
000310 4a 88 a2 bd db 60 8c 3d 1c ad 12 3d 23 78 d3 3b
       -0.07936151 0.06854411 0.03580962 0.0064535304
000320 f8 42 1f bd ff 88 80 3d ac d2 32 bd e6 33 28 3d
       -0.038882226 0.0627613 -0.043657944 0.04106512
000330 99 34 c3 bd 31 12 a7 3d e0 92 b6 bc c4 54 1a 3d
       -0.095315166 0.081577666 -0.022286832 0.037678495
000340 c3 b5 9d bd c4 9f 1e 3d d5 0f 0d bd fb 12 43 3d
       -0.07700684 0.038726583 -0.034438927 0.047625523
000350 f0 82 9a 3d 7f 65 3a 3d 62 63 09 bd db 31 7e 3d
       0.075445056 0.04550695 -0.033542044 0.062059265
000360 96 8a 93 bd 40 31 01 3e 62 0f 85 bd 33 50 b8 bd
       -0.072041675 0.12616444 -0.06497075 -0.08999672
000370 96 47 b6 3d b7 15 a2 3d 1b f9 bd 3c 66 50 1a 3c
       0.08900373 0.07914298 0.023190072 0.009418583
000380 20 d9 c8 3c c5 3f f3 bd a4 ce af bd f2 eb 94 3d
       0.024517596 -0.118773974 -0.085843354 0.072715655
000390 00 0d 63 bc e5 aa 43 3c 0a c6 af 3c 06 3e 87 bd
       -0.01385808 0.0119426 0.021456737 -0.06603627
0003a0 87 16 1c bd 83 7a d3 bd 0b 45 d7 3d 9b 2f 23 be
       -0.03810742 -0.10326102 0.10511216 -0.15936129
0003b0 62 f4 26 bc 0f cb f7 3d 4b 37 b8 bd 3c 31 22 bd
       -0.010190101 0.12099277 -0.08994921 -0.039597735
0003c0 7e 17 ba bd 6a d9 36 bc 7f 1c 11 3c 4f 56 2d bd
       -0.09086512 -0.011160234 0.008856892 -0.04231864
0003d0 73 91 91 bd ba f7 a0 bd 0f 87 94 bd 83 89 45 bd
       -0.0710782 -0.0785975 -0.07252323 -0.048226845
0003e0 31 92 de 3c 9d 16 2b bd a8 ca 01 be 9a a7 a0 bd
       0.027169319 -0.041769613 -0.12674963 -0.078444675
0003f0 54 09 04 3c ca 7e a8 3d 13 e6 bc 3d a6 7a 0b 3e
       0.008058865 0.08227308 0.09223571 0.13621005

conv2d_5/Conv2D_bias f4 [32]
000000 23 44 e6 bd da a8 93 3d ef 08 a6 be af 44 ec 3d
       -0.11243465 0.0720994 -0.3242869 0.11536538
000010 6f c4 84 3e 0a 9e 61 3e 2f ec 01 3e 39 7a 2e 3e
       0.25931117 0.22032943 0.12687753 0.17038812
000020 3f f7 8e 3e a8 db 0e 3e b4 04 2c be 49 95 0f 3e
       0.2792301 0.1395098 -0.16798669 0.14021792
000030 fa a4 73 3e d3 7a 78 3e 8a 27 cf bc d4 a0 0d 3d
       0.23793402 0.24265604 -0.025287408 0.034577206
000040 6e 6a 40 3d e0 94 32 3e 7d 5a 7e 3e 7e 88 42 bd
       0.0469765 0.17439604 0.24839206 -0.04749345
000050 87 9e de 3c e7 81 a0 3d 4e e1 d7 3d 61 25 aa bc
       0.027175201 0.07837277 0.1054102 -0.020769777
000060 81 df a0 3d c3 13 9a be ee ec 35 3e 6e 3e a3 3e
       0.0785513 -0.30093202 0.17766163 0.31883568
000070 50 22 81 3c f8 f2 db 3b f1 3e 2c 3c a7 66 a6 3c
       0.015763432 0.0067123137 0.010513053 0.02031262

conv2d_5/kernel f4 [32, 3, 3, 32]
000000 04 d0 aa 3d 0c fe 91 3d 01 6f f1 3d 00 93 6a 3d
       0.08340457 0.07128534 0.117887504 0.057269096
000010 56 57 95 3c 0a 9b 9c bd c5 4e 54 bd 96 08 2d bd
       0.018230122 -0.07646759 -0.051832933 -0.042244516
000020 6c 97 8c bd 45 9e f2 bd 50 23 84 bd e0 ba 0f 3c
       -0.06864819 -0.11846594 -0.06452048 0.008772582
000030 93 d8 2f bc c1 f0 2d 3d 47 5c d8 bb 2f 9e 31 3d
       -0.010732788 0.04246593 -0.006602797 0.043363746
000040 fd 51 8f bd 0a 94 d0 3c f7 18 5c 3d 67 4f 21 bd
       -0.0699806 0.025461216 0.053734746 -0.039382365
000050 11 67 e5 3b 4c 96 a2 3d 81 bc 87 3d e6 ba 68 3d
       0.007000812 0.07938823 0.06627751 0.056818865
000060 61 58 a7 3d c6 74 13 bb 13 c3 0b 3e de a5 3f 3d
       0.08171154 -0.0022500022 0.13648634 0.046789043
000070 13 03 f8 bc 2d 03 1e 3c 2f 75 26 3d f2 4e 06 3e
       -0.030274903 0.009644312 0.0406391 0.13116053
000080 b2 3e 0a bd e9 c1 de 3c e0 62 c3 3d 10 20 21 bd
       -0.033751197 0.027192073 0.09540343 -0.039337218
000090 06 94 c6 3c 66 a0 a9 3d b5 d5 03 3d b7 a7 9b bb
       0.024240505 0.08282547 0.03218623 -0.004750218
0000a0 70 97 8b bd e9 05 74 bd 69 44 7e 3d 6a 8b 59 ba
       -0.06815994 -0.05957595 0.06207696 -0.00082986674
0000b0 a0 8f b9 3d 03 47 d9 bc 62 fc e1 3a 39 93 fa bb
       0.090605974 -0.026523119 0.0017241354 -0.007646945
0000c0 5a 0d 6f 3d a7 cf 17 3e 19 73 6f 3d 55 bf 64 3d
       0.058362342 0.14825307 0.058459375 0.05584653
0000d0 f2 eb 98 3c 75 73 ba 3d 3a 89 28 3d af 0a b3 3a
       0.018667195 0.09104053 0.041146494 0.00136598
0000e0 87 48 4b bd 99 3a 28 3d ce ff 9e 3d 31 e6 c3 3d
       -0.049629714 0.041071508 0.077636346 0.0956539
0000f0 cd 7e 9e 3d a4 e5 27 bd 43 27 aa 3d 3f aa 51 3d
       0.07739029 -0.040990487 0.0830827 0.05118775
000100 a0 14 da 3c 83 de 1f 3d 67 16 8d bc b3 d4 28 3d
       0.026621163 0.039030563 -0.017222596 0.04121847
000110 95 85 52 3c 70 50 03 3e 61 19 da 3d 00 f0 b5 3d
       0.012849231 0.12823653 0.10649372 0.08883667
000120 69 2d 2b 3c 53 91 80 bd 40 a8 aa 3c 05 c3 e6 bd
       0.010447838 -0.062777184 0.020832181 -0.11267666
000130 1a 9a a8 3d 94 64 de 3b ca 38 bc bc f6 0e f2 bd
       0.082325175 0.006786892 -0.022976298 -0.1181926
000140 c0 62 77 bc 41 fe a2 3b 32 13 8e bd 24 e5 42 3d
       -0.015099227 0.004974157 -0.06937255 0.047581807
000150 44 32 8f 3d 88 69 6f bb 92 5c 51 3c 99 e6 fa bd
       0.06992009 -0.0036531407 0.012778418 -0.12251014
000160 65 d2 48 3d 6b bd b9 3c 72 3e 0e 3e c9 f7 d7 3d
       0.049028773 0.02267333 0.13891008 0.10545308
000170 13 ea 36 3d 8e 8c 8a 3d 33 f9 0e 3e fc d2 b7 3d
       0.044656824 0.0676509 0.1396225 0.08975789
000180 36 9c 80 3c df 9d 74 3d 2e 90 0b 3d ea 7c 4c bb
       0.015699487 0.05972087 0.034073047 -0.0031202384
000190 c1 33 a8 bd df 93 b4 3d f2 2e af 3c a5 55 b0 3c
       -0.08212996 0.08817267 0.02138469 0.021525213
0001a0 28 40 1d 3d 03 5c 46 bd 71 b0 70 bd a4 4f 66 3d
       0.038391262 -0.048427593 -0.058762018 0.056228295
0001b0 23 d1 24 3d 57 df a0 bd 02 d6 6e bd ac ee 4f 3c
       0.04023851 -0.07855099 -0.058309563 0.012691181
0001c0 87 8c 7e bd 5d 10 eb bc 64 86 0a bd a2 66 a4 3d
       -0.062145736 -0.028694326 -0.03381957 0.08027388
0001d0 c2 7d fc bc 28 ef c5 bc a4 32 a4 3d e4 5b fa bc
       -0.030821685 -0.02416189 0.080174714 -0.030561395
0001e0 e2 e8 95 bd c6 b0 10 bd 91 66 2c bd 5b 6c 4e 3c
       -0.073198095 -0.035324834 -0.042090002 0.012599076
0001f0 d6 e3 1c 3d 10 2e e2 3c cc cc 18 be 0f 75 9b 3d
       0.03830322 0.027609855 -0.14921874 0.075906865
000200 5d 82 1f 3d fd f0 3d bd cc cb ca bc af 54 e2 bd
       0.038942683 -0.046372402 -0.024755381 -0.11051308
000210 d0 5b cb bc 99 a8 77 bc 7e 49 9d 3d ea 67 84 bc
       -0.024824053 -0.01511588 0.07680033 -0.016162831
000220 2c af 9d bc 77 5f da bd 7f 2b b7 bd 8e e7 83 bc
       -0.019248568 -0.1066274 -0.08943843 -0.016101625
000230 1a 27 f3 bc 66 a9 de bd 81 d0 12 be d0 00 37 3c
       -0.029681731 -0.10872154 -0.1433735 0.011169627
000240 0c b6 a5 3c ed 30 96 3d 29 d8 91 3d 93 e1 30 bd
       0.020228408 0.073335506 0.071213074 -0.043183874
000250 ab 44 85 bd 53 d5 30 bd e6 96 dd bd 2a 8b 7f bd
       -0.06507238 -0.04317219 -0.10819797 -0.062388577
000260 bf 10 2d bd 85 7e ad 3d 85 ea cb bd 5c 1c 06 3d
       -0.0422523 0.08471397 -0.099568404 0.03274189
000270 31 c5 20 bd 0b 1d c5 bd 8b bf fe bd ff c8 c4 3d
       -0.039250556 -0.0962468 -0.12438878 0.096086495
000280 c4 e0 20 3d 27 aa 69 3d d1 ed 21 3d 01 0f 7d 3d
       0.039276853 0.057047036 0.03953344 0.061781887
000290 b1 01 ac 3c 1b 9e 57 bd 3f 50 61 3d 57 b0 5d bd
       0.0209969 -0.052641015 0.05500817 -0.05412325
0002a0 50 73 50 3d 8c 32 67 bb 51 5b 94 bd e8 ba f0 bd
       0.05089122 -0.003527793 -0.0724398 -0.117543995
0002b0 9a f5 6c bb b0 02 54 bd 17 da 0e 3d 3e ff c8 bd
       -0.0036157132 -0.051760375 0.034875955 -0.098143086
0002c0 e5 f7 b0 3b 6c 57 1e 3d e1 59 a7 bd cf da 49 3d
       0.005400645 0.03865759 -0.0817144 0.049280938
0002d0 bc 21 b6 3d ac fc 70 3b 2c f4 28 bd 23 e2 9d bd
       0.08893153 0.0036771698 -0.041248485 -0.07709148
0002e0 19 c4 30 3d 20 2c f3 3d 84 bd 54 3d fe 83 5f bc
       0.043155763 0.118736506 0.05193855 -0.013642309
0002f0 4a 38 49 bd 2e ce 3f bc 8c 41 ee 3c d3 6e d4 3c
       -0.049125947 -0.011706872 0.02908399 0.025931751
000300 58 c7 4c 3d aa 85 37 bd 97 8f 8d 3c 22 5c 73 bd
       0.049994797 -0.044805206 0.017280383 -0.059414037
000310 7f d2 dd 3c 27 cb 39 bc 9c a3 bb 3d 6a 8e 4a 3d
       0.027077911 -0.011339939 0.091620654 0.049452223
000320 47 8a 89 3d 63 45 1e be 39 6e c3 bd 47 15 52 3b
       0.067158274 -0.15456156 -0.09542508 0.003205614
000330 f6 e8 1e bc 9b da 61 bd 08 58 81 bd 63 d0 1b 3d
       -0.009699097 -0.05514012 -0.06315619 0.03804053
000340 69 59 83 3d a4 d6 ab 3d 9e 62 af 3c cf 5c f7 bd
       0.06413538 0.08390549 0.021409329 -0.12078249
000350 5c ee 32 bd 49 d1 2f 3c ce d6 18 3e be 1b c2 3d
       -0.04368435 0.01073105 0.14925691 0.09477948
000360 58 0c 1e 3d 00 21 31 3d 0c ba 21 bd c9 b2 d5 3c
       0.03858599 0.043244362 -0.03948407 0.026086228
000370 86 23 7d 3d 82 df c2 bc ec 3a c4 bd 95 c2 99 bd
       0.061801456 -0.023788217 -0.09581551 -0.07507817
000380 e3 04 8f bd 1e 2f f4 3c d7 61 5d 3c 40 0f 4c 3b
       -0.06983354 0.029807623 0.013512096 0.003113702
000390 52 4b 66 bd d0 03 89 3d 80 72 a4 bd 61 35 f1 3c
       -0.056224175 0.0669018 -0.08029652 0.029444398
0003a0 bb 96 c4 bb a5 7e a4 bd 9e 2f 69 bd c0 5d ac bd
       -0.005999414 -0.08031968 -0.056930177 -0.08416319
0003b0 a1 3d 83 bd 37 e8 14 be a2 b3 cb bd c9 d5 37 bd
       -0.06408239 -0.14541708 -0.099463716 -0.044881616
0003c0 f2 ed 59 bd 74 78 8d 3d 9b 79 29 bd 77 8c 5e 3b
       -0.053205438 0.0690774 -0.041375738 0.0033958235
0003d0 09 2d 3d bd f5 06 66 3d f6 e5 d2 bc f5 f3 d7 3c
       -0.046185527 0.05615898 -0.02574442 0.026361445
0003e0 1c b6 13 3c ef d1 9e 3d e1 ec 28 ba 0c 3e e1 bc
       0.009015586 0.077548854 -0.0006443989 -0.027495407
0003f0 2c 93 6a bc 12 f3 6e bc 1f dc bb bd 86 95 c2 3d
       -0.014317315 -0.01458432 -0.09172844 0.095011756

conv2d_6/Conv2D_bias f4 [32]
000000 62 55 f0 3c 2b 71 36 3d 18 4e 59 3a 07 63 cb 3d
       0.029337589 0.04454152 0.000828953 0.09930997
000010 d4 ac 6c be 9b f7 6d 3e f8 b5 27 bb 04 2c 2d be
       -0.23112804 0.23238985 -0.002559064 -0.16911322
000020 d6 3b 0b be 46 62 8b 3c 26 b6 44 3e a2 61 6f 3d
       -0.13597044 0.017014634 0.19210109 0.05844272
000030 1e a0 7d bd a4 4c 85 bb 6f df f1 3d 08 ad 90 3e
       -0.061920278 -0.004067974 0.11810195 0.28257012
000040 85 3c 4c 3c 2a 54 8a 3e 5d d8 22 3e f2 4e 8d 3e
       0.012465601 0.27017337 0.15902849 0.27599293
000050 b3 24 4d 3e d8 b4 51 3e 0c 55 13 3e cd a4 6b 3e
       0.20033531 0.20479143 0.14387912 0.23012085
000060 19 71 1b 3e 44 ee 9c 3c a6 59 ba 3d 23 39 2b 3e
       0.15179862 0.019156583 0.0909913 0.16721015
000070 95 7f 26 be 28 91 9a 3c 32 97 6e 3e 94 93 d4 3d
       -0.16259606 0.018868044 0.23299864 0.10379711

conv2d_6/kernel f4 [32, 3, 3, 32]
000000 75 f1 bc 3d 67 bb 88 bc 97 d0 f0 3c 9c f8 ae bd
       0.09225742 -0.016690923 0.029396338 -0.08543512
000010 28 eb f7 3c eb 27 f8 3b a5 e6 ad 3d 5d 42 4c 3c
       0.030263498 0.007573118 0.084912576 0.012466994
000020 fa 0a d3 3c 4d db d3 3d 4b d4 0a bd 7b 26 61 3c
       0.02576207 0.10344563 -0.033893865 0.013742085
000030 f7 5b 33 bd e3 5a 8e bd 6b bc 10 3d 84 eb ae bd
       -0.043788876 -0.06950929 0.03533594 -0.08541015
000040 88 ca 9f 3d dc 70 e1 bd 23 e4 b1 bc 58 90 82 bc
       0.07802302 -0.11007854 -0.02171523 -0.01593797
000050 28 12 97 bd bb 3f 14 be 13 1e 2e 3d 50 09 b0 bc
       -0.0737651 -0.14477436 0.04250915 -0.021488816
000060 18 20 af 3c 08 5b 5b bd 9f 2e 1c 3c 2a b0 bd 3c
       0.021377608 -0.05355361 0.0095326 0.02315529
000070 9b a9 8e bd 5e c8 07 3e a6 33 92 3d cb b6 90 bd
       -0.069659434 0.13260028 0.071387574 -0.07066115
000080 3b 98 af bb db 6e ea 3c 94 bc 20 3d cc 57 3b 3c
       -0.0053587235 0.028617313 0.039242342 0.011434507
000090 56 98 36 bd bb e6 c3 bd 58 0d 7f 3d a5 3a 42 3d
       -0.044578873 -0.09565493 0.062268585 0.04741921
0000a0 97 5d c5 bd 71 26 8b bb e8 f9 37 3d eb c5 f2 3d
       -0.096369915 -0.004246526 0.044916064 0.11854156
0000b0 bc 37 be bd bc ff 5d bd e9 d6 f0 3b c4 00 b7 3c
       -0.09287974 -0.054198965 0.007349838 0.022339232
0000c0 ee 49 fb 3d d5 d4 e7 3c cc a4 7b 3d 90 f8 48 3d
       0.1226996 0.028299728 0.06143646 0.049065173
0000d0 50 48 84 bd 0c c6 35 bd 38 b2 4c bd d3 8d 1b 3d
       -0.06459105 -0.044378325 -0.04997465 0.03797705
0000e0 0e c7 9f bc af b7 e7 3c 87 40 a0 bc 12 f0 7c bd
       -0.019504096 0.02828583 -0.019562019 -0.061752386
0000f0 e4 2f 97 bd e9 30 ae 3d 5b 62 ec 3c 37 dc 92 bd
       -0.07382181 0.085054226 0.028855493 -0.07170909
000100 39 89 5c bd ab 78 9a bd ab 77 b8 bc 35 71 68 3b
       -0.053841803 -0.07542547 -0.022518 0.0035467867
000110 85 aa 0c be 2f f8 34 3d d5 3d aa bd 21 11 89 3c
       -0.13736923 0.044182 -0.08312575 0.0167318
000120 ad 95 7f 3b c7 49 b0 3d e1 4a 0c 3d b6 5f 1a bd
       0.0038999126 0.08607822 0.034251098 -0.037688933
000130 0c ef a8 bd a0 7f dc 3b 0f 42 a4 bd e7 f4 26 3d
       -0.082487196 0.0067290813 -0.08020412 0.0407609
000140 48 06 df 3c e0 dc ac bd 46 c7 d0 3c c0 09 0f 3d
       0.027224675 -0.08440566 0.025485646 0.034921408
000150 4d a7 b3 3d 0e ec a8 bd 04 5d 3d be 65 53 32 bd
       0.087721445 -0.08248149 -0.18492514 -0.043536562
000160 cb bb c6 3d 25 89 02 3d 82 e3 82 bc 3f 84 2d bc
       0.097037874 0.031869072 -0.015977625 -0.010590612
000170 59 68 15 be eb 95 ab bd fc 40 7a 3c 9e 64 c0 bc
       -0.14590587 -0.08378204 0.015274283 -0.023485478
000180 65 2d 65 3d 84 69 ff 3d b7 50 7b 3d 24 b7 8d bd
       0.055951495 0.124712974 0.061356273 -0.06919697
000190 39 98 85 bd e2 92 10 bd 58 27 0a bd 17 40 03 3e
       -0.06523175 -0.03529633 -0.033728927 0.12817417
0001a0 06 2b c4 3c 09 7d 2d bd 9b 84 a3 bc 69 e8 bf 3d
       0.023946296 -0.04235557 -0.019960692 0.093705006
0001b0 01 32 86 3d 58 6a 58 3d 97 c9 ba 3c 55 6c 6f bd
       0.06552506 0.052835792 0.022801204 -0.058452923
0001c0 ec eb 3d bc cf f2 71 3d 9e 4d 21 3c 5a 57 9b 3d
       -0.011591893 0.05906945 0.009845166 0.0758502
0001d0 e9 35 07 be 82 fd ab 3d cb 67 1e be f1 22 04 3c
       -0.13204159 0.08397962 -0.15469281 0.008064971
0001e0 9f 35 cd bd 29 a5 8b 3b 15 5f 9a 3c ae 27 81 bd
       -0.10019993 0.004261632 0.018844167 -0.063063964
0001f0 10 d2 6a bb 2c 5d 27 ba ff c7 cf 3c 30 9c a8 bd
       -0.0035830773 -0.0006384428 0.02536392 -0.082329154
000200 60 77 06 3d f4 5f e1 3c ef 86 2a 3d 11 e0 a6 3d
       0.03282869 0.027511574 0.04163259 0.08148206
000210 63 43 08 bd 12 73 63 bd 2a 1f f0 bd 0e c8 6f 3d
       -0.03326739 -0.05552966 -0.11724694 0.058540396
000220 69 29 ac bd 19 22 18 bd fc b1 9a 3b 8d a9 0d 3e
       -0.08406336 -0.037141893 0.0047209244 0.1383421
000230 4c e2 62 3c dc 59 48 3d ed 38 1d 3d 05 61 0c bd
       0.013847899 0.04891382 0.038384367 -0.034272213
000240 55 ce ac 3c 8c c7 7d bc f2 27 73 bd 9e c2 34 3c
       0.02109448 -0.01548947 -0.059364267 0.0110327285
000250 0a fd 5f bd c6 91 02 bd 74 cb 89 bd cc 14 92 bd
       -0.054684676 -0.0318773 -0.06728259 -0.07132873
000260 e1 78 79 3d 2d f9 54 bb 31 15 9d bd b9 ed 1d bc
       0.060906295 -0.0032497153 -0.076700576 -0.009639197
000270 3d c4 a8 3c d7 22 98 bc d9 26 d6 3c 93 5c 81 bd
       0.020601386 -0.0185713 0.02614157 -0.06316485
000280 ec bc a2 bc ed ec 53 3d 48 cb d9 3d 8a 28 43 3d
       -0.019865476 0.051739622 0.10634476 0.047646083
000290 a7 ec 70 3c 5b e3 3a bc dc 3a be bd a3 15 28 3d
       0.01470486 -0.011406745 -0.0928857 0.04103626
0002a0 91 5d 16 bb b5 03 45 3d a4 2c a6 bd ce c6 e7 3d
       -0.0022943954 0.04809924 -0.08113983 0.11317216
0002b0 0f 55 18 3d f6 12 bb 3c 24 7a e8 bd ba 89 1a bc
       0.037190493 0.02283619 -0.113514215 -0.009432251
0002c0 61 34 29 3d 28 30 01 bd fd 85 3b bd d4 1b f7 bd
       0.041309718 -0.031540066 -0.045782078 -0.12065855
0002d0 e8 7c 62 bd 9e 78 00 3d 7c 98 61 3c f0 89 80 3c
       -0.0552949 0.03136503 0.013769265 0.015690774
0002e0 7b 3c 30 3d c1 6b 39 3d 4b c8 f6 bd 51 36 5f 3d
       0.04302643 0.045268778 -0.120499216 0.05449516
0002f0 b4 0f c0 bd f9 f8 4a bd 49 5b 76 3d 2e 28 44 bd
       -0.09377995 -0.049553845 0.06014565 -0.04788988
000300 3b ec 8a bc 00 98 ec bc 9d ad 6d 3d 5d 3f 86 3d
       -0.016958347 -0.028881073 0.0580269 0.06555054
000310 e2 2e 84 bd 45 72 b4 bd bc 63 1c 3d 3b 70 b5 bd
       -0.06454255 -0.08810858 0.03818105 -0.08859297
000320 09 44 29 bd 9a e1 4a 3d 85 d6 fa bd ab bc c0 3d
       -0.04132465 0.049531557 -0.122479476 0.094109856
000330 36 7e 71 3d f2 14 b6 bd 2a ec 04 3d f4 bc e9 bb
       0.058958255 -0.08890714 0.032451786 -0.0071331207
000340 67 57 bf 3d 80 cb 1c be 0f 31 21 bd 70 6a 94 3c
       0.093428425 -0.15312004 -0.039353427 0.01811716
000350 b4 f7 8d bc 69 44 ef bc 90 85 a4 bd 7e 1b 37 bd
       -0.017330028 -0.029207425 -0.080332875 -0.044703953
000360 d0 4d 8e bd 26 76 80 3d 48 8a 08 be bd 49 03 be
       -0.06948435 0.06272535 -0.13334 -0.12821098
000370 2a 2e 9e 3c ea d4 ec bc 88 21 dc bc 73 a6 a7 3d
       0.019309122 -0.02891012 -0.026871458 0.081860445
000380 b8 a3 1c 3d 48 0b b4 3c 90 44 5b 3d 3c 19 b6 bc
       0.038242072 0.021978036 0.053532183 -0.02222883
000390 17 90 dd 3c d9 91 03 bd 80 9b b0 3c a3 76 8f 3c
       0.027046246 -0.032121513 0.021558523 0.017512625
0003a0 59 4c a9 bc d0 e0 8c 3c 0a 6d 61 bd 6f aa e3 bb
       -0.020666288 0.017197043 -0.05503563 -0.0069478075
0003b0 47 bd d2 3b 7c 6d 92 bd 5a 6f a7 3c 22 fc b4 bd
       0.006431255 -0.07149789 0.020438839 -0.08837153
0003c0 db e9 aa 3d 11 46 4d 3d 04 f3 a2 bd c1 dc e4 3c
       0.08345386 0.05011565 -0.07956508 0.027937295
0003d0 4a e3 a6 3d d7 2d e2 bd 23 74 89 bd 57 2a c8 bb
       0.08148821 -0.110438995 -0.067116044 -0.006108563
0003e0 13 0e 8e 3d 34 5d 8c bd de 3b 7d bc df 9e cb bd
       0.06936278 -0.068537146 -0.015456168 -0.09942412
0003f0 b6 2b 90 bd 63 d1 50 3d 3e 66 d1 bb b5 6f 1f 3d
       -0.07039587 0.050980937 -0.006390362 0.03892489

conv2d_7/Conv2D_bias f4 [64]
000000 ba 47 89 bb dd 90 28 be ef 75 3b 3e 4e b4 1c 3e
       -0.0041894587 -0.16461511 0.18306707 0.15303156
000010 d9 07 e3 3c 5e 8b 3c bb 84 88 7b 3d 43 4d 59 be
       0.027713703 -0.0028769593 0.06140949 -0.2122088
000020 87 1b 93 bd 4f 1b 31 3e 67 7c 7a 3c 11 fa 40 be
       -0.07182985 0.17295574 0.015288449 -0.18845393
000030 aa f9 a7 3e 0d f0 a3 3c c2 a9 ae bd 7b e8 a9 3e
       0.32807666 0.020011926 -0.085284725 0.3318518
000040 16 1e 32 be 9d bc 72 bd c6 79 f0 3d e1 2a 04 be
       -0.1739429 -0.059261907 0.117419764 -0.12906982
000050 ca c2 36 be d6 76 35 bd 82 88 63 3d 66 16 94 3e
       -0.17847744 -0.044302784 0.055550106 0.2892334
000060 70 2d e8 bd 2d a1 a6 bc ca b7 5f bd 3d 40 94 3e
       -0.113367915 -0.020340526 -0.054618634 0.2895526
000070 c5 92 34 bd c1 a2 77 3e 21 97 76 bd 3b 8c d3 3d
       -0.044085283 0.2418318 -0.06020272 0.10329481
000080 34 ca 39 3d 14 f7 18 be 24 0e 8e 3d f4 06 be 3d
       0.04535885 -0.14938003 0.06936291 0.0927867
000090 13 f6 28 3c a6 5f 2b be 46 e6 23 3e 2f 8a 98 3e
       0.010312575 -0.16735706 0.16005811 0.29792926
0000a0 04 e7 82 3d fb 04 29 bd 94 e5 e0 3d 63 ec 92 3d
       0.06391719 -0.041264515 0.109812886 0.071739934
0000b0 1c 09 1e 3e a2 b3 51 bd 82 9b 4f 3e b4 52 03 bb
       0.15433162 -0.0511967 0.20274165 -0.0020038309
0000c0 64 cc 3d 3d 1c be 4c 3d 97 86 ab 3e 0d 38 00 3e
       0.0463375 0.04998599 0.3350112 0.12521382
0000d0 98 70 c6 3d 05 51 85 3e a8 01 30 bd bc b4 84 bd
       0.09689444 0.26038375 -0.04297033 -0.06479785
0000e0 e2 55 09 3e 55 ce 45 3c 6e 2f e2 bd 63 c0 c7 3d
       0.13411668 0.012073119 -0.11044203 0.09753492
0000f0 ac 03 85 be 97 a2 09 3e 25 d5 e5 3c 4b 12 9a bd
       -0.25979364 0.1344093 0.028055737 -0.0752302
